checkpoint.pth (torch_old, 38122 bytes, 11 tensors)

fc1.weight f4 [64, 8]
0	0x3d418aac	0.04725139
1	0x3e4bc2a3	0.19898467
2	0xbe8f40a8	-0.27979016
3	0xbe463bf7	-0.19358812
4	0xbf7cdd80	-0.9877548
5	0x3ec473a8	0.3836949
6	0x3d637724	0.055533543
7	0x3f098619	0.5372024
8	0xbbed69f1	-0.007245295
9	0x3bb88029	0.0056305123
10	0xbcab8ad5	-0.020940224
11	0x3be2fe1f	0.0069272663
12	0xbf213dbc	-0.62984824
13	0xbe8677e4	-0.26263344
14	0xbf0fafb0	-0.5612745
15	0x3f160ceb	0.5861346
16	0x3c76f1bc	0.015072282
17	0x3e981a75	0.29707685
18	0xbf182126	-0.5942558
19	0x3e65ddd0	0.22447896
20	0x3f24be77	0.64353126
21	0x3e69be7b	0.22826569
22	0x3ec1d617	0.3785865
23	0x3edbb0ca	0.42908317
24	0x3b71374e	0.0036806646
25	0xbcfc69ba	-0.030812133
26	0x3f76c485	0.96393615
27	0xbf762312	-0.96147263
28	0xbe9e355a	-0.3090008
29	0xbe2a2f43	-0.16619591
30	0x3c13c871	0.009019957
31	0x3d56ce98	0.052443117
32	0xbeeb0ee5	-0.459098
33	0xbf966441	-1.1749345
34	0xbdb1e05e	-0.08685373
35	0xbf3b9819	-0.7327896
36	0xbf1f2b7a	-0.62175715
37	0x3d07f899	0.033196066
38	0x3ebda675	0.3704106
39	0x3ebe5f30	0.37181997
40	0xbe4a32dc	-0.19745964
41	0xbf4826b8	-0.7818408
42	0x3e870fb9	0.26379183
43	0xbf86d031	-1.0532285
44	0xbe876488	-0.26443887
45	0xbe639ebc	-0.22228521
46	0x3e647f2b	0.22314136
47	0x3eadc605	0.3394014
48	0xbddc9568	-0.107706845
49	0xbbf2a6d3	-0.007405141
50	0x3ebef5f7	0.3729703
51	0x3fa06f32	1.2533934
52	0xbf0b2ebc	-0.54368186
53	0x3c479aeb	0.012182931
54	0x3f19582f	0.5990018
55	0xbdd973be	-0.10617779
56	0x3f1e2ffb	0.6179196
57	0xbf9510a3	-1.1645702
58	0x3d937e27	0.07201796
59	0xbf667cc7	-0.90034145
60	0x3ec62408	0.38699365
61	0x3e71004f	0.23535274
62	0xbd476754	-0.048682526
63	0x3e8e27b8	0.27764678
64	0x3b6cc43e	0.0036127712
65	0xbc7cf79d	-0.015439895
66	0x3ef2c95d	0.47419253
67	0x3edf29bf	0.43586537
68	0xbd3f80b1	-0.04675359
69	0x3f3b2b8d	0.7311333
70	0xbdfcb63f	-0.12339448
71	0xbe9af32b	-0.30263647
72	0xbcb6a998	-0.022297665
73	0x3d89fcbf	0.067376606
74	0x3f175605	0.5911563
75	0x3fe3821b	1.777408
76	0x3e06f756	0.13180289
77	0xbe1fe9d0	-0.15616536
78	0xbf1ac53e	-0.6045722
79	0x3f0c33fd	0.5476683
80	0xbf5b5af6	-0.8568567
81	0x3f22a0ec	0.635268
82	0xbd83a1fa	-0.06427379
83	0xbf246c68	-0.64227915
84	0xbd8b3070	-0.06796348
85	0x3df5236e	0.11969648
86	0x3e926fc7	0.28600904
87	0xbf00cacd	-0.5030945
88	0x3e3eeae4	0.18644291
89	0xbf63a3fa	-0.88922083
90	0xbf616855	-0.88049823
91	0x3f267033	0.6501495
92	0x3eed2bec	0.46322572
93	0x3df6c082	0.12048437
94	0xbf0108d7	-0.50404114
95	0x3d6cd973	0.057824563
96	0x3ee088e7	0.43854448
97	0x3e1152c0	0.14191723
98	0x3ec975bd	0.3934764
99	0xbee87199	-0.45399168
100	0x3f53d705	0.8274997
101	0x3f22e986	0.6363758
102	0x3ea494bc	0.32144725
103	0xbe62c4a5	-0.22145326
104	0xbf272650	-0.65292835
105	0x3df7cd95	0.120997585
106	0xbf6708ad	-0.90247613
107	0xbec1142e	-0.37710708
108	0x3ed6afaa	0.41930896
109	0x3e041752	0.12899521
110	0xbe1a5618	-0.15071905
111	0x3efe9896	0.4972579
112	0xbd5fdbaa	-0.054652847
113	0x3ed79bef	0.42111155
114	0x3ee4f9cf	0.4472184
115	0xbe59bd3a	-0.2126359
116	0xbea19663	-0.31560048
117	0x3d9c44c8	0.076303065
118	0xbc04d607	-0.008107669
119	0xbe544bcc	-0.20732039
120	0xbd0f8545	-0.035039205
121	0xbd4517a3	-0.048118245
122	0xbf31035f	-0.6914577
123	0xbecd2cba	-0.40073186
124	0xbe9f7ce4	-0.3114997
125	0xbf88be69	-1.0683109
126	0xbecca7c0	-0.39971733
127	0xbd814222	-0.06311442
128	0xbdb24164	-0.087038785
129	0xbf4b4d08	-0.79414415
130	0xbe776165	-0.24158247
131	0xbf44e55f	-0.7691249
132	0x3e6fc50e	0.23415014
133	0xbdc82a2f	-0.09773671
134	0x3ef5f48d	0.4803814
135	0x3e861f12	0.2619558
136	0xbd586d35	-0.052838523
137	0x3deed339	0.11661381
138	0xbcb21933	-0.021740532
139	0x3e322022	0.1739507
140	0x3ea591c8	0.32337785
141	0x3f2341a9	0.63772064
142	0x3f44830e	0.76762474
143	0xbd94e867	-0.0727089
144	0xbe81476c	-0.25249803
145	0xbea21ae3	-0.31661138
146	0x3d9e3369	0.077246495
147	0x3bb239fe	0.005439042
148	0xbe963381	-0.2933617
149	0xbf6c1db3	-0.9223282
150	0xbfa662ad	-1.2998863
151	0x3d337e2d	0.043821502
152	0xbe945b0d	-0.28975716
153	0x3d9bc0e1	0.07605148
154	0xbcf7b299	-0.03023653
155	0xbf679c49	-0.9047285
156	0x3dde3945	0.10850767
157	0xbe601aa6	-0.21885166
158	0xbdc9f9cc	-0.09862098
159	0xbf1c0125	-0.60939246
160	0x3e987593	0.29777202
161	0x3e0bd195	0.13654168
162	0xbf26dc70	-0.6518011
163	0xbf069f47	-0.5258679
164	0x3e3c0619	0.18361701
165	0x3dd22008	0.10260016
166	0xbeeb3019	-0.45935133
167	0x3f136183	0.57570666
168	0xbe1b39a0	-0.15158701
169	0x3e453088	0.19256794
170	0x3f434e4b	0.7629134
171	0x3cdc71a9	0.026909666
172	0x3ea767a5	0.32696262
173	0x3f39b939	0.7254825
174	0x3d615cf2	0.05502028
175	0x3effda17	0.49971077
176	0x3e43e392	0.1912978
177	0xbf32af89	-0.69799095
178	0x3e3c26be	0.18374154
179	0xbf5c32fb	-0.8601529
180	0x3d1a6d03	0.037701618
181	0x3cd0ee99	0.025504397
182	0x3eb7fcfe	0.35935205
183	0x3ead0442	0.3379231
184	0x3ed71846	0.42010707
185	0x3ec00e8a	0.37511092
186	0xbea1564f	-0.3151116
187	0x3dcfa1fb	0.10138317
188	0xbec7526e	-0.38930076
189	0x3ebbdda8	0.36692548
190	0x3f156d5f	0.5837001
191	0xbd8aa37f	-0.06769466
192	0x3caf941e	0.021432932
193	0xbd2fa1a2	-0.042878754
194	0xbfaffd89	-1.3749248
195	0xbe3704a6	-0.17872867
196	0xbe5fb3bb	-0.21845905
197	0xbd076844	-0.03305842
198	0x3c37b093	0.011211532
199	0x3b467570	0.00302824
200	0x3e73db1f	0.23814057
201	0x3f01c10e	0.50685203
202	0xbf12394d	-0.57118684
203	0xbf1a53c8	-0.6028409
204	0x3e688134	0.22705537
205	0x3db39fbc	0.08770701
206	0x3e2bf3e2	0.16792253
207	0x3f324ab2	0.69645226
208	0x3e8bc7af	0.27300784
209	0xbf230270	-0.63675594
210	0x3e8c7220	0.2743082
211	0x3d093f97	0.03350791
212	0xbef9241d	-0.48660365
213	0xbe137de5	-0.14403494
214	0x3e7731a9	0.24140038
215	0x3eee5356	0.46547955
216	0xbdbfe4d8	-0.0936982
217	0x3e215602	0.15755466
218	0x3ee9b6f3	0.45647392
219	0xbeabf4e1	-0.33585265
220	0xbee9211e	-0.4553308
221	0x3f70284b	0.9381148
222	0x3d404e86	0.046949886
223	0xbce3709d	-0.02776366
224	0xbf960525	-1.172032
225	0x3e5511cc	0.2080757
226	0xbee4b435	-0.44668737
227	0x3dc1f983	0.09471419
228	0x3df1d6ee	0.11808573
229	0xbdb31f73	-0.08746233
230	0x3cae8c80	0.02130723
231	0x3edf8616	0.43656987
232	0x3e10f4ed	0.14155932
233	0x3ef6239a	0.48074037
234	0x3df169e9	0.11787779
235	0xbea3f2d8	-0.32021213
236	0x3f3768a0	0.7164402
237	0xbee2fc39	-0.44333056
238	0xbedb3b34	-0.42818606
239	0xbf2f92a7	-0.6858315
240	0x3d718f7e	0.058974735
241	0x3d92c791	0.071669705
242	0xbf302386	-0.68804204
243	0x3c2abec2	0.010421457
244	0x3f3ce29e	0.7378329
245	0xbf875e6e	-1.0575693
246	0x3f55b6de	0.8348216
247	0xbf417902	-0.7557527
248	0xbec88068	-0.39160466
249	0xbf33ce95	-0.70237094
250	0xbe861c03	-0.26193246
251	0x3d083908	0.033257514
252	0x3f227554	0.6346028
253	0x3e719209	0.23590864
254	0xbf0adbc9	-0.54241616
255	0x3d84b742	0.06480266

fc1.bias f4 [64]
0	0xbe909997	-0.2824218
1	0xbbbb5c6b	-0.005717804
2	0x3db35199	0.08755798
3	0x3c309088	0.010776646
4	0xbec972a7	-0.39345285
5	0x3d7b9780	0.06142378
6	0x3e91bbeb	0.28463683
7	0xbdb4c2b1	-0.08826197
8	0x3e2475f2	0.16060618
9	0xbc07a312	-0.008278625
10	0x3d6c8fe0	0.057754397
11	0xbea79ad2	-0.32735306
12	0xbd21a40d	-0.03946309
13	0x3d517231	0.051134292
14	0x3ec905eb	0.39262328
15	0xbe071486	-0.13191423
16	0x3e442c16	0.19157442
17	0xbd7dd466	-0.061970137
18	0x3ebf4e57	0.37364456
19	0x3eb647ed	0.3560175
20	0xbe13dc5b	-0.14439528
21	0xbe75020e	-0.23926565
22	0xbe2616ec	-0.16219682
23	0xbdf200b2	-0.11816539
24	0x3c1aa0a5	0.009437715
25	0xbeb02cce	-0.34409183
26	0xbe75e65e	-0.2401366
27	0x3ed360f8	0.4128492
28	0x3bce59e8	0.0062973388
29	0x3d947620	0.07249093
30	0x3cb3a4fe	0.02192926
31	0xbed79926	-0.4210903
32	0x3e045bbe	0.12925622
33	0x3ebb5af1	0.3659282
34	0xbc58d1d0	-0.013233617
35	0xbdb02956	-0.08601634
36	0x3d62e28d	0.055391837
37	0x3ecbf335	0.3983399
38	0xbeabbe97	-0.33543846
39	0xbe3540fd	-0.17700572
40	0x3f0f843f	0.56061167
41	0xbe6fbaa8	-0.23411047
42	0x3eac8389	0.33694103
43	0xbd11e590	-0.03561932
44	0x3d6cb071	0.057785455
45	0xbddb6c9f	-0.10714077
46	0x3eacd02c	0.33752573
47	0x3e7dfed6	0.24804243
48	0xbe483cdd	-0.19554467
49	0x3df99176	0.121859476
50	0xbe607c35	-0.21922381
51	0x3edac2c5	0.42726722
52	0xbeaef582	-0.34171683
53	0x3ec123b3	0.3772255
54	0x3ce1adc6	0.027548682
55	0xbea329e8	-0.3186791
56	0x3eb0144b	0.34390482
57	0x3e28f5c6	0.16500005
58	0x3eb09267	0.34486696
59	0x3eac0df5	0.33604398
60	0x3d770f0e	0.06031709
61	0x3e0b6091	0.13611056
62	0x3e9096fb	0.2824019
63	0x3da1dc9b	0.07903405

fc2.weight f4 [64, 64]
0	0xbe6753b0	-0.22590518
1	0x3eefa2c6	0.46803874
2	0x3ceb0895	0.028690616
3	0x3d218dd8	0.039441913
4	0xbe93fafb	-0.2890242
5	0xbedb9159	-0.4288433
6	0xbf37a4f5	-0.7173608
7	0x3bf45223	0.0074560805
8	0x3e458b62	0.19291452
9	0x3d1ac972	0.03778977
10	0x3e0e8a11	0.13919856
11	0x3de7c6db	0.113172255
12	0x3e689387	0.22712527
13	0x3ee20306	0.44142932
14	0x3e522958	0.20523584
15	0x3ebb78a5	0.36615482
16	0xbe0a77b3	-0.13522224
17	0x3edff3ca	0.43740684
18	0x3edc6b72	0.43050724
19	0x3e8ebe67	0.2787964
20	0xbeb677f3	-0.3563839
21	0x3ecc090c	0.39850652
22	0xbe436860	-0.19082785
23	0x3f21b55c	0.6316736
24	0x3dc2cb20	0.09511399
25	0x3dfead80	0.12435436
26	0xbee4fb6f	-0.4472308
27	0x3e939740	0.28826332
28	0x3ee99c41	0.45627025
29	0x3e3820f8	0.17981327
30	0xbeeb6ab3	-0.45979843
31	0x3e958674	0.29204142
32	0x3d43ee27	0.04783454
33	0xbe313e12	-0.17308834
34	0x3db6c744	0.08924726
35	0x3dcfae0d	0.101406194
36	0x3d74f933	0.059807967
37	0xbe007f37	-0.12548529
38	0x3d359d30	0.04433936
39	0xbe6b208f	-0.22961639
40	0x3ebc9af2	0.36836964
41	0x3e4136ee	0.1886861
42	0x3dbbe523	0.09174564
43	0x3e74ba62	0.23899224
44	0x3ecf69de	0.40510458
45	0x3de07fc0	0.109618664
46	0x3eb591de	0.3546285
47	0xbe98000b	-0.29687533
48	0xbdda46fa	-0.10658069
49	0x3ddf7f7a	0.10912986
50	0xbe191bf9	-0.14952077
51	0xbd679977	-0.05654284
52	0x3eaf479d	0.34234324
53	0x3e194c03	0.14970402
54	0xbf04e48f	-0.5191125
55	0xbe46356b	-0.19356315
56	0x3edeef92	0.43542153
57	0x3e43c3ff	0.19117735
58	0x3da241a5	0.07922677
59	0xbba18c4e	-0.0049300557
60	0x3e2f1bbc	0.17100424
61	0xbf056d0c	-0.5211952
62	0xbc7cae22	-0.015422376
63	0xbe763a5f	-0.24045704
64	0x3e4b5a8b	0.19858758
65	0x3dd0ca9c	0.10194895
66	0xbdbc0447	-0.09180503
67	0x3e562726	0.20913371
68	0x3e867a6b	0.26265272
69	0x3ed10923	0.40827283
70	0xbfbd116d	-1.4770943
71	0x3f0606a1	0.52353865
72	0xbf24a502	-0.6431428
73	0xbf0cd5d2	-0.55013764
74	0xbe07c253	-0.13257723
75	0xbe8a8d2f	-0.2706084
76	0x3e77053f	0.24123095
77	0x3cf24179	0.029572235
78	0xbe918b18	-0.28426433
79	0xbdf6f0b7	-0.120576315
80	0x3dfd9d8a	0.12383564
81	0x3e5e12b6	0.21686825
82	0xbea2d6a6	-0.3180439
83	0xbe975aa5	-0.29561344
84	0x3e0d4f86	0.13799867
85	0x3ecaa642	0.3957997
86	0x3f294db3	0.66134185
87	0x3e605ae1	0.21909668
88	0xbe7d86c9	-0.24758448
89	0x3ea6b0be	0.3255672
90	0x3ec7c813	0.39019832
91	0x3e72a6ea	0.23696485
92	0x3f02d12a	0.5110041
93	0xbda712d9	-0.08157892
94	0xbe1153cb	-0.1419212
95	0x3f963ba9	1.1736957
96	0xbd661e32	-0.05618114
97	0xbf55e4aa	-0.8355204
98	0x3e90ca03	0.28279123
99	0xbea0686f	-0.31329677
100	0xbee1dfd4	-0.4411608
101	0x3d89a5d8	0.06721085
102	0x3daf4fca	0.085601404
103	0xbe864c0f	-0.26229903
104	0xbe25e5ac	-0.16200894
105	0x3e96d3d0	0.29458475
106	0xbe8946aa	-0.26811725
107	0xbf7e258f	-0.9927606
108	0xbe1ab3d1	-0.15107657
109	0xbe90e7bc	-0.283018
110	0xbf434030	-0.7626982
111	0xbeb494ce	-0.3526978
112	0x3d846460	0.064644575
113	0x3e0d2f4c	0.13787574
114	0x3e1abeed	0.15111895
115	0xbed0c1e7	-0.40772936
116	0x3ead7f01	0.3388596
117	0x3e75dd69	0.24010243
118	0x3bca0a24	0.0061657596
119	0xbe28625a	-0.16443768
120	0x3eae3c08	0.34030175
121	0xbf2e8a8f	-0.68180174
122	0xbbd61a41	-0.0065338914
123	0x3e7886dc	0.24270195
124	0xbe1ca004	-0.15295416
125	0x3d36def6	0.044646226
126	0x3db9af98	0.09066695
127	0x3e410e2e	0.18853065
128	0x3e2e99d2	0.17050865
129	0xbdf1aac0	-0.11800146
130	0x3dc56258	0.09637898
131	0x3edbc290	0.42921877
132	0xbdee1a8f	-0.116261594
133	0x3e10b4bd	0.14131446
134	0xbeba11be	-0.3634166
135	0xbe4b65d2	-0.1986306
136	0xbd6ac63c	-0.057317957
137	0xbac0caa9	-0.0014708835
138	0x3ec0d5c4	0.3766309
139	0x3bf537a8	0.0074834414
140	0x3e981833	0.29705963
141	0x3e4cc114	0.19995528
142	0x3e96abf2	0.2942806
143	0x3f2ea576	0.68221223
144	0x3e110cf8	0.14165103
145	0x3ec820b0	0.3908744
146	0x3e1e6761	0.15469123
147	0x3e2b0ab2	0.16703299
148	0x3e233594	0.15938407
149	0x3e4f1e3d	0.20226379
150	0xbd2083c7	-0.039188173
151	0x3ec0e25f	0.37672707
152	0x3f2c7eae	0.673808
153	0x3e0caab3	0.13736992
154	0xbed83c90	-0.42233706
155	0x3ece8ae9	0.40340355
156	0xbd7f5232	-0.062334247
157	0x3e4fb819	0.20285071
158	0x3ca5e517	0.02025084
159	0xbe90540c	-0.28189123
160	0x3e908b7a	0.28231412
161	0xbedf7312	-0.4364248
162	0x3f6d30c5	0.9265254
163	0xbda575e4	-0.080791265
164	0xbe5d615d	-0.21619172
165	0x3e16b394	0.14716941
166	0x3dcaf7cc	0.09910545
167	0x3e40815e	0.1879935
168	0x3e801a53	0.25020084
169	0x3e377c44	0.17918497
170	0x3df51656	0.11967151
171	0xba377b0a	-0.000699923
172	0x3e573acd	0.21018524
173	0xbe9af924	-0.30268204
174	0xbb0a9f12	-0.0021151942
175	0xbcb105b3	-0.021609163
176	0x3d588ce1	0.052868728
177	0x3d9d6302	0.076849
178	0xbe52d88b	-0.20590417
179	0x3e0c1eb6	0.1368359
180	0xbe2c23ee	-0.16810581
181	0x3e70009f	0.23437737
182	0x3ec893d9	0.391753
183	0xbe82d844	-0.25555623
184	0x3df20b4a	0.118185595
185	0x3eb6d740	0.35711098
186	0x3e0d704c	0.13812369
187	0x3eaa6440	0.3327961
188	0x3e2422ae	0.16028854
189	0xbce410d8	-0.027840063
190	0x3e64bc0a	0.22337356
191	0x3c90cc82	0.017675642
192	0x3eb68494	0.35648024
193	0x3d5a6a43	0.053323995
194	0x3e760d32	0.24028471
195	0xbddf1884	-0.10893348
196	0x3ed36f25	0.41295734
197	0x3ee52b81	0.44759753
198	0x3e5a4953	0.21317033
199	0x3f09f66a	0.53891623
200	0x3e059c18	0.13047826
201	0xbf4232ea	-0.7585894
202	0xbde7840f	-0.11304485
203	0xbeb4cc05	-0.35311905
204	0xbeb4eb6e	-0.3533587
205	0x3e956adc	0.2918309
206	0xbd273b73	-0.04082818
207	0xbdfeaef5	-0.12435714
208	0x3e927844	0.2860738
209	0xbf3d2e38	-0.7389865
210	0xbebc0cba	-0.3672846
211	0xbdfd7524	-0.123758584
212	0xbea5264e	-0.32255787
213	0xbef18665	-0.47172847
214	0x3eec0c02	0.4610291
215	0xbdbf47aa	-0.09339841
216	0xbe654cb6	-0.22392544
217	0x3e96efa7	0.29479715
218	0x3ee1957a	0.44059354
219	0xbe8a69c2	-0.27033812
220	0x3e956506	0.29178637
221	0xbe8fe2c6	-0.28102702
222	0x3d37735b	0.044787746
223	0xbd13ffe0	-0.036132693
224	0xbd62e732	-0.055396266
225	0x3d9f192a	0.077684715
226	0xbf4e6d2f	-0.8063535
227	0xbe03acd8	-0.12858903
228	0x3e64a259	0.22327556
229	0x3e4d3920	0.20041323
230	0x3dfe9006	0.12429814
231	0x3decf5a7	0.11570292
232	0x3df5ba2b	0.11998399
233	0x3ef360f4	0.47534907
234	0xbe29cbf7	-0.16581713
235	0x3dc33cbf	0.09533071
236	0x3ef3bc0a	0.476044
237	0x3c393356	0.011303743
238	0xbc3d6594	-0.011559863
239	0xbd841d5b	-0.064509116
240	0x3d336693	0.043798994
241	0x3f483b57	0.78215545
242	0x3ecc35ad	0.398847
243	0x3d8a618b	0.06756886
244	0x3deabb41	0.11461497
245	0x3e44edfc	0.19231409
246	0xbf0d2d71	-0.55147463
247	0x3f0689fb	0.5255429
248	0x3e17b35f	0.14814518
249	0xbe8a527e	-0.27016062
250	0x3daaf769	0.08347971
251	0x3dff91a6	0.12478952
252	0x3e0cbf94	0.13744956
253	0x3e92e759	0.2869213
254	0x3e2b96d8	0.16756761
255	0x3c184c7c	0.009295579

fc2.bias f4 [64]
0	0x3e7f3fc4	0.24926668
1	0xbf0d9790	-0.5530939
2	0x3d0a1e77	0.03372046
3	0x3df54453	0.119759224
4	0x3ed815fa	0.42204267
5	0xbd66807f	-0.056274887
6	0x3e292e72	0.16521624
7	0x3d62bed3	0.055357765
8	0x3cee0018	0.02905278
9	0xbdce4d02	-0.10073282
10	0xbd009dbb	-0.031400423
11	0xbe04dda8	-0.1297518
12	0xbd09b376	-0.033618413
13	0xbdae2f24	-0.08505085
14	0x3e1f860d	0.1557848
15	0x3e1a4eac	0.15069073
16	0x3dd2d1a5	0.10293893
17	0x3d8be25d	0.06830285
18	0xbd944d8e	-0.07241355
19	0x3d80bbc7	0.06285816
20	0xbea27eae	-0.31737274
21	0xbda593ba	-0.08084817
22	0xbcc04f51	-0.023475321
23	0xbe04ba48	-0.12961686
24	0xbd9e32dd	-0.07724545
25	0xbe0d0eff	-0.13775252
26	0xbde6ff6c	-0.112791866
27	0xbdde37f7	-0.10850518
28	0x3d17511c	0.036942586
29	0xbea9ed08	-0.33188653
30	0x3e8e734a	0.27822334
31	0x3e8e778a	0.27825576
32	0xbebc12aa	-0.3673299
33	0x3e0420da	0.12903157
34	0x3d64dd96	0.055875383
35	0xbdefb5d4	-0.11704603
36	0xbc23e470	-0.010003194
37	0x3e749532	0.23885038
38	0xbda8bef9	-0.0823955
39	0x3dc0e6b0	0.09419
40	0x3e8619a2	0.2619143
41	0x3cd8ba2c	0.026455961
42	0xbd9dbb3f	-0.0770173
43	0x3e384985	0.17996795
44	0xbd90f212	-0.07077421
45	0x3dc87be8	0.09789258
46	0x3d18a4ac	0.03726642
47	0xbc6d3e5c	-0.0144802
48	0xbdd8b65c	-0.10581657
49	0xbbf20b2e	-0.0073865866
50	0x3d1e09a7	0.038583424
51	0xbda2e400	-0.07953644
52	0x3da2e9f4	0.07954779
53	0xbe93af56	-0.28844708
54	0x3e122afa	0.14274207
55	0xbeba255d	-0.3635663
56	0x3e078439	0.13234033
57	0x3e61024c	0.21973532
58	0xbd51bf68	-0.05120793
59	0xbd5413d0	-0.051776707
60	0xbe720f9d	-0.23638768
61	0xbe92eec5	-0.28697792
62	0x3dd8c498	0.10584372
63	0x3e10c295	0.14136727

adv1.weight f4 [32, 64]
0	0x3dd54d5e	0.10415147
1	0x3ea91874	0.3302647
2	0xbdaa3986	-0.08311753
3	0x3ed819dc	0.4220723
4	0xbd862894	-0.065507084
5	0x3eca560f	0.39518782
6	0x3b629724	0.003457495
7	0x3e2d870f	0.16946052
8	0xbdc703b8	-0.09717506
9	0x3d1d0a4c	0.038339898
10	0xbf3e6f39	-0.7438846
11	0xbd8c43d2	-0.06848873
12	0xbc6bfc16	-0.014403364
13	0xbe8dec2b	-0.27719244
14	0xbd86d0b2	-0.06582774
15	0xbf51d2d5	-0.8196233
16	0x3f0793ca	0.52959883
17	0xbcce80f3	-0.025207972
18	0xbe245ffb	-0.16052239
19	0x3e8b11e1	0.27162078
20	0xbe0aed7c	-0.13567156
21	0x3b920ab8	0.004456844
22	0xbf449996	-0.76796854
23	0xbbec57b8	-0.0072126053
24	0xbea95153	-0.33069858
25	0x3dd78c75	0.10524837
26	0xbd97d460	-0.07413554
27	0xbda32f37	-0.0796799
28	0xbf8492ba	-1.0357277
29	0xbcefd690	-0.029277116
30	0xbcdcbe85	-0.026946316
31	0xbda2bb06	-0.07945828
32	0xbf48a471	-0.7837592
33	0x3ddd2cf8	0.10799593
34	0x3e28b377	0.1647471
35	0xbdcaccd4	-0.09902349
36	0x3f2a4f8c	0.6652763
37	0x3dc38fa1	0.095488794
38	0x3d816e58	0.063198745
39	0xbdfd45e3	-0.123668455
40	0xbdaa0ca5	-0.08303193
41	0x3e857d2a	0.26072055
42	0x3ecd5775	0.40105787
43	0x3e969919	0.2941368
44	0xbe5e4b37	-0.2170838
45	0xbd05f3cc	-0.032703206
46	0x3f2a2123	0.6645681
47	0xbd496560	-0.049168944
48	0x3f07edf3	0.53097457
49	0x3edbe085	0.42944732
50	0xbee9d06c	-0.45666826
51	0xbd18e9bf	-0.037332293
52	0x3ea29f1d	0.3176202
53	0x3e652e76	0.22381005
54	0xbe4d2558	-0.20033777
55	0xbe3c1f7f	-0.1837139
56	0x3d2fb439	0.042896483
57	0xbef8769b	-0.4852799
58	0xbe9dea5a	-0.3084286
59	0xbbf02aab	-0.007329305
60	0xbeae0daa	-0.339948
61	0x3c9da743	0.019244796
62	0x3d6084ce	0.054814152
63	0xbe85b392	-0.26113564
64	0x3daf0732	0.08546294
65	0x3f2f7ef6	0.685531
66	0xbe0d3961	-0.1379142
67	0x3d4db3d0	0.05022031
68	0x3e74806b	0.23877113
69	0x3d616cd8	0.055035442
70	0x3e93bdce	0.28855747
71	0xbe879d2f	-0.2648711
72	0x3de3fc2a	0.11132081
73	0xbdc681c7	-0.09692722
74	0x3d4be003	0.04977418
75	0xbd370bfe	-0.04468917
76	0x3ec6909e	0.3878221
77	0x3e01e30d	0.12684269
78	0x3cc9cebf	0.024634717
79	0x3d8cfad1	0.06883777
80	0xbe29719b	-0.16547243
81	0xbc90c296	-0.01767091
82	0xbed422df	-0.41432855
83	0x3c9c4624	0.019076414
84	0x3c1f537f	0.009724497
85	0xbe91fc95	-0.28513017
86	0xbe02ff16	-0.1279262
87	0xbd88e294	-0.06683841
88	0xbe019c88	-0.12657368
89	0x3d825179	0.06363196
90	0x3cbf908b	0.023384353
91	0x3cb6bcba	0.022306789
92	0x3e9c7e6c	0.30565202
93	0xbe90885e	-0.2822904
94	0xbed493ce	-0.41519016
95	0xbc8300fd	-0.015991682
96	0x3edeee9a	0.43541414
97	0xbcd8a1d2	-0.02644435
98	0xbe074978	-0.1321162
99	0x3dc0664b	0.09394511
100	0xbf0e44ff	-0.5557403
101	0xbc5b6003	-0.01338959
102	0x3e004634	0.1252678
103	0x3e620e28	0.22075713
104	0xbb999a52	-0.004687586
105	0x3dedb6a6	0.11607103
106	0x3e442feb	0.19158904
107	0x3e113e19	0.14183845
108	0x3e8f2eb2	0.27965313
109	0x3c2f1a60	0.010687441
110	0x3ce9ba02	0.028531078
111	0xbd5ef7fd	-0.05443572
112	0xbea5a2be	-0.32350725
113	0x3e164c42	0.14677528
114	0xbdd93c54	-0.1060721
115	0x3d22bfd1	0.03973371
116	0xbecb47cd	-0.39703217
117	0x3e2439d2	0.16037682
118	0xbe9600e9	-0.2929757
119	0x3ecf2131	0.4045501
120	0xbd3c35f7	-0.045949902
121	0x3dd1508f	0.102204435
122	0x3d867975	0.06566135
123	0xbdf9e72f	-0.12202298
124	0x3e5a0753	0.21291856
125	0x3e176763	0.14785533
126	0xbe6b67c4	-0.22988802
127	0x3e5cf36b	0.21577232
128	0xbdea20e3	-0.11432054
129	0xbdbc7f54	-0.092039734
130	0xbddc2dd8	-0.107509315
131	0x3d2bf663	0.04198302
132	0x3dbcb478	0.09214109
133	0x3ce6bf2d	0.028167332
134	0x3d0f0c4c	0.034923837
135	0x3d94de1a	0.07268925
136	0x3daf084c	0.085465044
137	0x3d98ddaa	0.07464154
138	0x3d76acdb	0.06022344
139	0x3d0a8ac0	0.03382373
140	0x3d60f766	0.054923438
141	0xbdc3a25e	-0.095524535
142	0xbdaed168	-0.08536035
143	0x3d09b2d8	0.033617824
144	0x3c4423ea	0.011971453
145	0xbde10e24	-0.10989025
146	0xbdc51505	-0.0962315
147	0xbddd0084	-0.10791114
148	0x3db892d0	0.09012377
149	0x3da75f56	0.08172481
150	0xbd86bee6	-0.0657938
151	0x3c9a8088	0.018860117
152	0xbceb8708	-0.028750911
153	0x3dde8c2a	0.10866578
154	0xbde7de3c	-0.11321685
155	0xbdbac326	-0.09119253
156	0xbde8a073	-0.11358728
157	0x3d94fc8a	0.072747305
158	0xbd8d07ab	-0.06886228
159	0x3d86d6bb	0.06583925
160	0x3d0640e7	0.03277674
161	0xbd7a4304	-0.061099067
162	0xbd2252f9	-0.03962991
163	0xbd4f3290	-0.05058533
164	0x3d61e198	0.055146784
165	0xbd719ea0	-0.058989167
166	0x3d05e8d6	0.032692753
167	0xba2e90bf	-0.0006659142
168	0xbdcc7178	-0.0998258
169	0xbda0ecb6	-0.07857649
170	0xbdc45724	-0.09586933
171	0x3d862486	0.06549935
172	0x3c8e334f	0.01735845
173	0xbb4dfac0	-0.0031429976
174	0xbda91d89	-0.082575865
175	0xbdfda58e	-0.12385093
176	0xbd4055ca	-0.046956815
177	0xbdc3ed7c	-0.09566781
178	0xbdff8079	-0.12475676
179	0xbe031562	-0.12801126
180	0xbda737c0	-0.0816493
181	0xbe062ecf	-0.13103794
182	0x3cf55832	0.029949281
183	0x3d173a2d	0.036920715
184	0x3d471dee	0.048612528
185	0xbe060b16	-0.13090166
186	0x3d8f25c7	0.06989627
187	0x3cc7a488	0.024370447
188	0x3d5d5b5e	0.054042213
189	0xbd209d62	-0.039212592
190	0x3d75deb0	0.060026824
191	0xbdf2cb54	-0.11855188
192	0x3e356ea7	0.17717992
193	0xbe57feb6	-0.21093258
194	0x3e79f96d	0.24411555
195	0xbe160238	-0.14649284
196	0xbdc39753	-0.09550347
197	0x3ea32495	0.31863847
198	0xbc830b9f	-0.015996752
199	0x3e0bf963	0.13669352
200	0x3c934750	0.01797834
201	0xbcc7f160	-0.024407089
202	0xbdb1acb5	-0.086755194
203	0xbbdfa444	-0.006825002
204	0xbda90f9c	-0.082549304
205	0xbe391e5e	-0.1807799
206	0x3e3aecb0	0.18254352
207	0xbf6b05c1	-0.91805655
208	0x3e84b6e9	0.259208
209	0x3e076fe1	0.13226272
210	0x3e09e6e0	0.13466978
211	0xbdea5793	-0.11442485
212	0xbdeab5c2	-0.11460449
213	0x3e48ee83	0.19622235
214	0x3e309abc	0.17246526
215	0x3c0357c4	0.00801653
216	0xbf44c1fe	-0.7685851
217	0x3dc8f40f	0.098121755
218	0x3d81335f	0.063086264
219	0xbd641f6e	-0.055694036
220	0xbdcddb0f	-0.10051548
221	0x3ebc2ef9	0.36754587
222	0x3e9cac65	0.30600277
223	0x3d88b505	0.06675152
224	0xbd7fac90	-0.062420428
225	0xbe950f89	-0.29113415
226	0x3c84d2e7	0.016213847
227	0xbd7bcab1	-0.0614726
228	0x3f12b8ce	0.5731324
229	0xbe335887	-0.17514239
230	0xbe801152	-0.25013214
231	0xbe1f556d	-0.15559931
232	0x3e390b16	0.18070635
233	0x3dfce179	0.12347693
234	0x3f169985	0.58828
235	0x3e94d371	0.29067567
236	0x3d99018e	0.07471
237	0xbdf36490	-0.11884415
238	0x3e36c108	0.17847073
239	0xbcd719f0	-0.026257485
240	0x3e94e7e2	0.29083163
241	0x3e2c6174	0.1683405
242	0xbdc9ece7	-0.09859639
243	0xbdf91e82	-0.12164022
244	0x3eb4ecb0	0.35336828
245	0x3e947450	0.2899499
246	0x3d44c9da	0.048044063
247	0xbd04a1d7	-0.032380905
248	0x3dea01a0	0.11426091
249	0xbe56d33e	-0.2097902
250	0x3eed4f60	0.4634962
251	0xbda0994d	-0.0784174
252	0x3d3f8398	0.046756357
253	0xbe8243c8	-0.25442338
254	0x3da2b3f9	0.07944483
255	0x3d7cff64	0.061766997

adv1.bias f4 [32]
0	0xbd2f769b	-0.04283772
1	0xbed69a61	-0.41914657
2	0xbd01bee2	-0.03167618
3	0xbd8872b0	-0.066625
4	0x3d7677e4	0.06017293
5	0xbd8268c6	-0.0636764
6	0xbdbd09c7	-0.092303805
7	0xbd7ba938	-0.061440676
8	0x3dd4fd56	0.103998825
9	0xbd9cdd67	-0.07659417
10	0x3e826142	0.25464827
11	0x3d4f75af	0.05064934
12	0x3e026c3d	0.12736602
13	0xbce336ab	-0.027736029
14	0x3d2a5c1a	0.04159174
15	0x3d8e9158	0.06961316
16	0x3dcc2ce3	0.09969499
17	0x3e2833f3	0.16426067
18	0x3db898a8	0.09013492
19	0xbd99a071	-0.07501305
20	0x3bfd1be6	0.007724273
21	0x3e2ce0b4	0.16882592
22	0x3d32acaf	0.043621715
23	0x3ec52916	0.3850791
24	0xbe150079	-0.14550962
25	0x3c80523a	0.015664209
26	0xbf0ae792	-0.542596
27	0xbe72effb	-0.23724358
28	0x3e3cc364	0.1843391
29	0xbe1d2ac7	-0.1534835
30	0x3d0dcf4a	0.034621514
31	0x3e5d4ab2	0.21610525

adv2.weight f4 [4, 32]
0	0xbe846754	-0.25860083
1	0xbd2e8a92	-0.04261262
2	0xbe0559f7	-0.130226
3	0x3e74330b	0.23847596
4	0x3c27cb93	0.010241407
5	0xbd518c3a	-0.05115912
6	0x3c9cbe50	0.019133717
7	0xbd2b20d2	-0.041779347
8	0xbeb2c961	-0.34919265
9	0x3de7a2f8	0.11310381
10	0x3ed25c78	0.41086173
11	0xbe143ab7	-0.14475523
12	0x3e586d96	0.21135554
13	0xbe204b2f	-0.1565368
14	0x3db604bd	0.088876225
15	0xbe205e79	-0.15661038
16	0xbca46984	-0.020069845
17	0x3c174e13	0.009234923
18	0x3e41f139	0.18939675
19	0x3d2982c9	0.041384492
20	0x3d19a5af	0.037511524
21	0xbeb1bfba	-0.34716588
22	0x3ec75ef0	0.3893962
23	0x3ee8bbfa	0.45455915
24	0x3e193ee5	0.14965399
25	0xbd609c11	-0.054836337
26	0xbe0fdf39	-0.14049996
27	0xbf172be5	-0.5905135
28	0xbe9f12a7	-0.31068918
29	0x3e7b5f15	0.2454799
30	0xbe01077f	-0.12600516
31	0xbe0eddc1	-0.1395178
32	0xbf0d99ad	-0.55312616
33	0x3e907d72	0.28220707
34	0xbdfd06dd	-0.12354825
35	0xbe79be0b	-0.24388902
36	0xbf2c0f4c	-0.6721084
37	0xbed086f3	-0.40727958
38	0x3c6e1c67	0.014533139
39	0xbf06664d	-0.5249985
40	0xbe636eee	-0.22210285
41	0x3e4ed95c	0.20200104
42	0x3eb1651b	0.3464745
43	0xbdf6f0e4	-0.12057665
44	0x3e0de623	0.13857321
45	0x3b84d9b4	0.0040542725
46	0xbf4a548b	-0.7903525
47	0x3e70b7be	0.23507592
48	0xbe3c1458	-0.18367136
49	0x3f8525fd	1.0402218
50	0xbec4b174	-0.38416636
51	0xbd9b64dd	-0.075875975
52	0xbe984743	-0.29741868
53	0x3ea89125	0.32923236
54	0x3f08c221	0.5342122
55	0x3f6487d0	0.89269733
56	0x3f17f45b	0.5935723
57	0x3f3cb17e	0.7370833
58	0x3f992fe6	1.1967742
59	0xbf56e55c	-0.83943725
60	0x3e2a5ed2	0.16637734
61	0x3efc3d18	0.4926536
62	0xbd424a83	-0.04743434
63	0xbe93d6b1	-0.28874734
64	0x3f89df90	1.0771351
65	0xbee99c49	-0.4562705
66	0xbe2adec6	-0.16686544
67	0x3eeda8d4	0.46417868
68	0x3e51c887	0.20486651
69	0x3ee45e88	0.44603372
70	0x3f2b591b	0.6693284
71	0x3e354ae6	0.17704353
72	0x3ebcdc0a	0.36886626
73	0xbf42d70b	-0.7610938
74	0xbf2a7107	-0.66578716
75	0xbf096389	-0.53667504
76	0x3ef56c6e	0.47934288
77	0xbf097ba1	-0.5370427
78	0x3f2454c7	0.6419186
79	0x3f494add	0.7862986
80	0xbecb9cff	-0.39768216
81	0xbf78a36a	-0.9712435
82	0x3f41ae35	0.75656444
83	0x3ee8d13a	0.45472127
84	0xbd6363f0	-0.05551523
85	0x3e9d1837	0.30682537
86	0xbe5685a7	-0.20949422
87	0xbf3bab6a	-0.7330843
88	0xbfb3f83c	-1.406013
89	0xbf51c0ff	-0.81935114
90	0xbf6f060a	-0.9336859
91	0xbd5d5309	-0.054034267
92	0x3eaa66a0	0.33281422
93	0xbf4b54a7	-0.79426044
94	0x3f0c1c69	0.5473085
95	0x3e89a1f2	0.26881367
96	0xbf01f05b	-0.5075738
97	0x3e53c3e7	0.206802
98	0xbe0641e5	-0.13111074
99	0xbefce364	-0.49392235
100	0x3ee6eda2	0.45103174
101	0xbe300be7	-0.1719204
102	0xbf180fd0	-0.5939913
103	0x3e8bf2e8	0.2733376
104	0x3ea116df	0.31462762
105	0x3eb2f50a	0.34952575
106	0xbdbfed70	-0.093714595
107	0x3f347fc5	0.7050746
108	0xbed65232	-0.41859585
109	0x3e9c1f4f	0.30492637
110	0xbe1ff438	-0.15620506
111	0xbf5be7ba	-0.8590046
112	0x3f1bbfd6	0.60839593
113	0xbea47ea1	-0.3212786
114	0xbe7cba8e	-0.2468054
115	0xbe800b49	-0.2500861
116	0x3e5ca312	0.21546581
117	0x3c96873e	0.018375035
118	0xbe7bac9e	-0.24577567
119	0xbeb04ed1	-0.34435132
120	0x3ea56589	0.32304028
121	0x3e19392d	0.14963217
122	0xbc888795	-0.016666213
123	0x3f96416d	1.1738716
124	0xbe80840a	-0.25100738
125	0x3e9854eb	0.29752287
126	0xbf024038	-0.5087924
127	0xbdc54bf1	-0.09633625

adv2.bias f4 [4]
0	0x3d487041	0.04893518
1	0xbe5629b1	-0.20914342
2	0x3d9a1d82	0.075251594
3	0xbd80570e	-0.06266604

val1.weight f4 [32, 64]
0	0x3df42e61	0.119229086
1	0x3fbdca5c	1.482738
2	0xbd712a05	-0.058877964
3	0x3e1c3062	0.15252832
4	0x3eab2047	0.33423063
5	0x3e981288	0.29701638
6	0x3eacce33	0.33751068
7	0x3e19b04f	0.15008663
8	0xbd248330	-0.040164173
9	0x3d8067a5	0.062697686
10	0x3dddb091	0.10824693
11	0xbdbbe091	-0.09173692
12	0x3ead4e86	0.3384897
13	0x3f0cff0d	0.55076677
14	0x3eef8b94	0.46786177
15	0xbeb0308c	-0.34412038
16	0x3ec8ad4a	0.3919471
17	0x3eb7ba36	0.35884255
18	0xbf155208	-0.58328295
19	0x3edd7586	0.43253726
20	0x3dadeb7f	0.08492183
21	0xbf06ccd0	-0.5265627
22	0xbdcbe4ec	-0.09955773
23	0xbd8c68c3	-0.06855919
24	0xbf1626a3	-0.58652705
25	0xbc56d090	-0.013111249
26	0xbde6f6bf	-0.11277532
27	0x3d0dd7b3	0.034629535
28	0x3ea6cd66	0.32578582
29	0x3f52dec7	0.8237118
30	0x3be6973d	0.007037072
31	0x3f15c211	0.58499247
32	0x3e8b3486	0.2718851
33	0x3f1c963b	0.61166734
34	0xbe8e8b39	-0.27840593
35	0x3d160f71	0.03663582
36	0x3e9029b4	0.28156817
37	0x3df9d085	0.12197975
38	0x3e9ee72b	0.31035742
39	0x3eccb4cc	0.39981687
40	0x3edc00cf	0.42969367
41	0x3e857802	0.2606812
42	0x3f95275d	1.1652638
43	0x3e84077d	0.25786963
44	0x3e836233	0.25660858
45	0xbc5e6dd0	-0.013575986
46	0xbf300b28	-0.68767023
47	0x3de59953	0.11210885
48	0x3e55a453	0.20863466
49	0x3f2d2179	0.676292
50	0xbe239246	-0.15973768
51	0x3ebb0970	0.36530638
52	0xbe04d5ee	-0.12972233
53	0x3d659917	0.0560542
54	0xbea56ae1	-0.32308105
55	0x3e680c8a	0.22661033
56	0x3e9c37da	0.3051136
57	0x3d89c8b3	0.067277335
58	0x3e90c272	0.2827335
59	0x3dd4c636	0.10389368
60	0x3e99456f	0.29935786
61	0x3e7dc4cf	0.24782108
62	0x3ee52579	0.44755152
63	0x3e9a2ac8	0.30110765
64	0xbfe45763	-1.7839168
65	0x3eae6123	0.34058484
66	0xbd9b99bd	-0.075976826
67	0x3eaef984	0.3417474
68	0xbe9198e3	-0.28436956
69	0x3e9b524f	0.30336234
70	0xbed3056a	-0.41215068
71	0x3eb01be5	0.34396282
72	0x3dfeb086	0.12436013
73	0x3d81f10e	0.06344806
74	0xbed619c2	-0.41816527
75	0x3a882e80	0.0010389835
76	0xbe230d85	-0.15923126
77	0x3f1aea26	0.6051353
78	0xbd5c615e	-0.053803794
79	0xbf54e28e	-0.83158195
80	0x3f1eb067	0.6198792
81	0xbdf0d6f1	-0.11759747
82	0x3e0dc7c7	0.1384574
83	0x3d99a34a	0.07501848
84	0x3e1bc9ab	0.15213649
85	0xbe750ffd	-0.2393188
86	0xbf036df3	-0.51339644
87	0xba219e00	-0.00061652064
88	0x3f158bf2	0.58416665
89	0x3d8d6ba0	0.069052935
90	0xbfc90327	-1.5704087
91	0xbdfd1bc8	-0.123588145
92	0xbe0a5e87	-0.13512622
93	0x3f3b0573	0.7305519
94	0xbdff88e2	-0.1247728
95	0xbca9a840	-0.02071011
96	0x3f0ee0bb	0.5581166
97	0x3f183076	0.59448946
98	0x3d98170e	0.07426272
99	0x3d8d5109	0.06900222
100	0x3eec2ec3	0.46129426
101	0xbfde8f41	-1.7387468
102	0x3f1e45d2	0.6182529
103	0xbc4f9bfe	-0.012671469
104	0x3f404685	0.75107604
105	0xbd952c83	-0.072838806
106	0x3f701e40	0.9379616
107	0xbe819ade	-0.25313467
108	0xbf02dfd1	-0.51122767
109	0xbd28deac	-0.04122798
110	0xbf4e0e54	-0.80490613
111	0x3d292798	0.041297525
112	0x3f178a66	0.59195554
113	0x3f06b740	0.5262337
114	0xbfbbb708	-1.4665232
115	0x3e54559e	0.20735785
116	0xbf3fa3ec	-0.748595
117	0x3f2e7119	0.68141323
118	0xbf0a3dd8	-0.54000616
119	0x3f4ffcb9	0.81245
120	0xbec3469e	-0.38139814
121	0x3eb0c832	0.34527737
122	0xbeae6ec8	-0.34068894
123	0x3df1a346	0.1179872
124	0x3ee47452	0.44619995
125	0xbe1a8fa1	-0.15093853
126	0xbdd717d8	-0.10502595
127	0x3f2016ad	0.625346
128	0x3e38a817	0.18032871
129	0xbf761d60	-0.9613857
130	0x3d8e2415	0.06940476
131	0x3e3c3319	0.18378867
132	0xbee72e04	-0.45152295
133	0xbcd9df2b	-0.026595673
134	0x3dda5d69	0.10662348
135	0xbe14342a	-0.14473024
136	0x3de14e24	0.11001232
137	0x3cda8261	0.026673498
138	0x3f00c8ee	0.50306594
139	0xbcb98008	-0.022644058
140	0x3e87b5c6	0.2650587
141	0x3dfb977c	0.12284753
142	0xbe9514fd	-0.29117575
143	0x3f35ff5f	0.7109279
144	0xbd0bb7f7	-0.03411099
145	0xbe3c6c0e	-0.18400595
146	0x3e409c1c	0.18809551
147	0x3d8dd7e9	0.06925947
148	0x3dd57ff3	0.10424795
149	0x3f3ec648	0.74521303
150	0x3e4edbcb	0.20201032
151	0xbbec95a1	-0.0072199856
152	0x3ec36bf6	0.38168305
153	0x3d1e0df6	0.038587533
154	0x3da85279	0.082188554
155	0xbd5c7e31	-0.053831283
156	0x3e862566	0.26200408
157	0xbf3eb9c7	-0.74502224
158	0x3d6c5dde	0.057706706
159	0xbe368f81	-0.1782818
160	0x3e06a7f9	0.13150014
161	0xbf1c658b	-0.6109244
162	0xbed43c66	-0.4145233
163	0xbd49ade9	-0.04923812
164	0xbea4fb8d	-0.32223168
165	0x3e5009cc	0.20316237
166	0x3f00dc43	0.5033609
167	0x3d0ea299	0.034823034
168	0xbea579c5	-0.32319465
169	0xbf9c227a	-1.2198021
170	0xbf245141	-0.64186484
171	0xbe21bbbc	-0.15794271
172	0x3ec663fb	0.38748154
173	0xbd446c90	-0.047955096
174	0x3f2d0fa2	0.6760198
175	0x3de6ffb4	0.1127924
176	0xbde64175	-0.11242954
177	0xbedac7af	-0.42730471
178	0xbca20a4e	-0.019780304
179	0x3e4468e9	0.19180645
180	0x3c5c0970	0.013429984
181	0x3ec53cdc	0.38522995
182	0x3d1520dc	0.03640829
183	0x3e9ddf46	0.30834407
184	0x3e25ac11	0.1617892
185	0x3ec7bc6c	0.39010942
186	0xbe07e1c4	-0.13269717
187	0x3d49b338	0.049243182
188	0x3e6cd6ea	0.23128858
189	0xbe583d19	-0.21117057
190	0xbea85623	-0.32878217
191	0x3e3bf6b6	0.18355832
192	0x3d89c1f2	0.06726445
193	0x3fd1cc3a	1.639045
194	0x3d852e56	0.065029785
195	0x3e3c07aa	0.18362299
196	0x3f0602d1	0.5234805
197	0x3e613cbb	0.21995823
198	0x3ec912cd	0.39272156
199	0x3e1cc028	0.15307677
200	0xbc145fa0	-0.009056002
201	0x3ced736a	0.028985698
202	0x3e6b1801	0.22958376
203	0x3b9f32f3	0.0048583685
204	0x3e86f755	0.26360574
205	0x3ec60742	0.38677412
206	0x3e95b67b	0.29240784
207	0xbead7b45	-0.3388311
208	0x3e8fc736	0.28081673
209	0x3ec2764b	0.37980875
210	0xbef1ef6e	-0.47252983
211	0x3ec23a0d	0.37934914
212	0x3e2e2f61	0.17010261
213	0xbf0d1502	-0.5511018
214	0xbe068e5f	-0.13140248
215	0x3d381c91	0.044949118
216	0xbf4f1f88	-0.8090749
217	0xbd2d8c3f	-0.042370077
218	0x3d0b9931	0.03408164
219	0x3d33928a	0.043840922
220	0x3e310967	0.17288743
221	0x3f6931b1	0.9109145
222	0xbdb910b3	-0.09036388
223	0x3f0fa4ad	0.5611065
224	0x3eebf7d7	0.46087524
225	0x3f0dd11e	0.5539721
226	0xbea1a9cd	-0.3157486
227	0x3d6656a1	0.05623496
228	0x3e9fecbc	0.31235301
229	0x3e059e14	0.13048583
230	0x3e4ab8bf	0.19797038
231	0x3e7e48f1	0.24832512
232	0x3eaa11e8	0.33216786
233	0x3e2d9b92	0.16953877
234	0x3f8841a7	1.0645036
235	0x3ead2b24	0.33821976
236	0x3e647781	0.22311212
237	0xbdaf7374	-0.08566943
238	0xbf184c16	-0.594911
239	0xbd87a8ec	-0.06624016
240	0x3e7b5c8f	0.24547027
241	0x3f390771	0.7227698
242	0xbe20ed84	-0.15715605
243	0x3ea8ced5	0.329703
244	0x3d96450a	0.07337387
245	0x3cd4cd37	0.02597676
246	0xbe47d8ad	-0.19516249
247	0x3ee217c9	0.44158772
248	0x3e724d88	0.23662388
249	0x3e1f934e	0.15583536
250	0x3ea5bcc6	0.32370585
251	0xbbaf6bda	-0.005353433
252	0x3ed0ac5c	0.407565
253	0x3e88ded0	0.26732492
254	0x3eabff85	0.33593383
255	0x3e7609e9	0.24027218

val1.bias f4 [32]
0	0x3e209a12	0.15683773
1	0xbebe783b	-0.37201104
2	0x3e6b5ecd	0.22985382
3	0xbbe7f03a	-0.007078198
4	0x3d9bfb31	0.0761627
5	0x3d845e3d	0.06463287
6	0xbbef6939	-0.0073062447
7	0x3c357a5f	0.011076539
8	0x3d11b0e0	0.03556907
9	0x3bc1ba01	0.005912066
10	0xbdb5a579	-0.08869452
11	0x3d3ad622	0.04561437
12	0xbc134a2e	-0.008989854
13	0x3d06c53d	0.032902945
14	0x3dd4ed6a	0.10396846
15	0x3dc449fa	0.095844224
16	0xbe6009cf	-0.21878742
17	0x3e5e0bb1	0.21684147
18	0xbdb506ca	-0.088391855
19	0x3dddcc53	0.108299874
20	0x3e2254a7	0.15852605
21	0x3e136fd4	0.14398128
22	0x3e3c3b54	0.18382007
23	0x3e1eb68e	0.15499327
24	0x3e020e67	0.12700807
25	0x3ec16b76	0.377773
26	0x3e5137ff	0.20431517
27	0x3e1f2673	0.15542011
28	0x3e84d9ae	0.25947326
29	0x3e069f1f	0.13146637
30	0xbd5d50b2	-0.054032035
31	0x3d753666	0.05986633

val2.weight f4 [1, 32]
0	0xbee54257	-0.44777176
1	0xc04538f0	-3.0816002
2	0x3f2a8af6	0.6661829
3	0xbec7f4c9	-0.39053944
4	0xbeea7992	-0.45795876
5	0x3fafba5d	1.3728749
6	0xbef9f673	-0.48820838
7	0x3fb6af10	1.4272175
8	0xbeef7fda	-0.4677723
9	0xbed6b12d	-0.4193205
10	0xbcc60349	-0.024171488
11	0x3fa9e67f	1.3273467
12	0xbf17625a	-0.5913445
13	0xbf2006d5	-0.62510425
14	0xbed571eb	-0.41688475
15	0x3fa590a0	1.2934761
16	0x3f453c1b	0.7704484
17	0x3fa545c7	1.2911919
18	0xbf0566c8	-0.52109957
19	0xbf1240e2	-0.57130253
20	0xbf075355	-0.5286153
21	0x3f87fc6e	1.062391
22	0xbefda467	-0.49539492
23	0xbf1c0e50	-0.6095934
24	0x3f1e6297	0.61869186
25	0x3f9d55db	1.2291826
26	0x3f7ac486	0.9795612
27	0x3f830ca8	1.0238237
28	0x3f84b34f	1.0367221
29	0xbef07131	-0.46961358
30	0x3f6fe3d2	0.93707
31	0x3fb647bd	1.4240643
